…
Memory after Preparing Data: 51.01 GB
GFS Size:  85
Memory after Data Setup: 51.01 GB
Memory Available after DataLoader: 51.01 GB
Input Channels:  85 Output Channels:  69
Input Shape:  torch.Size([85, 721, 1440]) Output Shape:  torch.Size([69, 721, 1440])
Memory before Lightning Module: 51.01 GB
====================================================================================================
Layer (type:depth-idx)                             Output Shape              Param #
====================================================================================================
GFSUnbiaser                                        [1, 69, 721, 1440]        --
├─Encoder: 1-1                                     [1, 256, 180, 360]        --
│    └─ModuleList: 2-3                             --                        (recursive)
│    │    └─Conv2DBlock: 3-1                       [1, 128, 721, 1440]       265,891,584
│    └─MaxPool2d: 2-2                              [1, 128, 360, 720]        --
│    └─ModuleList: 2-3                             --                        (recursive)
│    │    └─Conv2DBlock: 3-2                       [1, 256, 360, 720]        133,021,952
│    └─MaxPool2d: 2-4                              [1, 256, 180, 360]        --
├─Decoder: 1-2                                     [1, 128, 721, 1440]       --
│    └─ModuleList: 2-7                             --                        (recursive)
│    │    └─ConvTranspose2d: 3-3                   [1, 256, 360, 720]        262,400
│    └─ModuleList: 2-8                             --                        (recursive)
│    │    └─Conv2DBlock: 3-4                       [1, 128, 360, 720]        66,654,336
│    └─ModuleList: 2-7                             --                        (recursive)
│    │    └─ConvTranspose2d: 3-5                   [1, 128, 720, 1440]       65,664
│    └─ModuleList: 2-8                             --                        (recursive)
│    │    └─Conv2DBlock: 3-6                       [1, 128, 721, 1440]       265,941,120
├─Conv2d: 1-3                                      [1, 69, 721, 1440]        8,901
====================================================================================================
Total params: 731,845,957
Trainable params: 731,845,957
Non-trainable params: 0
Total mult-adds (Units.GIGABYTES): 554.07
====================================================================================================
Input size (MB): 353.00
Forward/backward pass size (MB): 8010.79
Params size (MB): 2927.38
…
